# Simple single-layer network to showcase editing model parameters.
layer {
  name: "data"
  type: "HDF5Data"
  top: "dataT1"
  top: "dataT2"
  top: "dataSeg"
  include {
    phase: TRAIN 
  }
  hdf5_data_param {
    source: "./trainInfant_list.txt"
    batch_size: 10
    shuffle: true 
  }
}
layer {
  name: "data"
  type: "HDF5Data"
  top: "dataT1"
  top: "dataT2"
  top: "dataSeg"
  include {
    phase: TEST
  }
  hdf5_data_param {
    source: "./testInfant_list.txt"
    batch_size: 10
    shuffle: true
  }
}
layer {
  name: "concat"
  type: "Concat" 
  bottom: "dataT1"
  bottom: "dataT2"
  top: "data"
  #concat_param {
  #concat_dim:1
  #}
}
#-------------layer group 1---------------
layer {
  name: "conv1a"
  type: "Convolution"
  bottom: "data"
  top: "conv1a"
  param {
    lr_mult: 1
  }
  param {
    lr_mult: 2
  }
  convolution_param {
    num_output: 32 
    kernel_size: 3
    pad: 1
    stride: 1
    engine: CAFFE
    weight_filler {
      type: "xavier"
      #std: 0.01
    }
    bias_filler {
      type: "constant"
      value: 0
    }
  }
}
layer {
  name: "relu1a"
  type: "ReLU" 
  bottom: "conv1a"
  top: "conv1a"
}
layer {
  name: "conv1b"
  type: "Convolution"
  bottom: "conv1a"
  top: "conv1b"
  param {
    lr_mult: 1
  }
  param {
    lr_mult: 2
  }
  convolution_param {
    num_output: 32
    kernel_size: 3
    pad: 1
    stride: 1
    engine: CAFFE
    weight_filler {
      type: "xavier"
      #std: 0.01
    }
    bias_filler {
      type: "constant"
      value: 0
    }
  }
}
layer {
  name: "relu1b"
  type: "ReLU"
  bottom: "conv1b"
  top: "conv1b"
}
layer {
  name: "conv1c"
  type: "Convolution"
  bottom: "conv1b"
  top: "conv1c"
  param {
    lr_mult: 1
  }
  param {
    lr_mult: 2
  }
  convolution_param {
    num_output: 32
    kernel_size: 3
    pad: 1
    stride: 1
    engine: CAFFE
    weight_filler {
      type: "xavier"
      #std: 0.01
    }
    bias_filler {
      type: "constant"
      value: 0
    }
  }
}
layer {
  name: "relu1c"
  type: "ReLU"
  bottom: "conv1c"
  top: "conv1c"
}
layer {
  name: "pool1"
  type: "Pooling"
  bottom: "conv1c"
  top: "pool1"
  pooling_param {
    pool: AVE
    kernel_size: 3
    stride: 2
    engine: CUDNN
  }
}
#-------------layer group 2---------------
layer {
  name: "conv2a"
  type: "Convolution"
  bottom: "pool1"
  top: "conv2a"
  param {
    lr_mult: 1
  }
  param {
    lr_mult: 2
  }
  convolution_param {
    num_output: 32
    kernel_size: 3
    pad: 1
    stride: 1
    engine: CAFFE
    weight_filler {
      type: "xavier"
      #std: 0.01
    }
    bias_filler {
      type: "constant"
      value: 0
    }
  }
}
layer {
  name: "relu2a"
  type: "ReLU"
  bottom: "conv2a"
  top: "conv2a"
}
layer {
  name: "conv2b"
  type: "Convolution"
  bottom: "conv2a"
  top: "conv2b"
  param {
    lr_mult: 1
  }
  param {
    lr_mult: 2
  }
  convolution_param {
    num_output: 32
    kernel_size: 3
    pad: 1
    stride: 1
    engine: CAFFE
    weight_filler {
      type: "xavier"
      #std: 0.01
    }
    bias_filler {
      type: "constant"
      value: 0
    }
  }
}
layer {
  name: "relu2b"
  type: "ReLU"
  bottom: "conv2b"
  top: "conv2b"
}
layer {
  name: "pool2"
  type: "Pooling"
  bottom: "conv2b"
  top: "pool2"
  pooling_param {
    pool: AVE
    kernel_size: 3
    stride: 2
    engine: CUDNN
  }
}
#-------------layer group 3---------------
layer {
  name: "conv3a"
  type: "Convolution"
  bottom: "pool2"
  top: "conv3a"
  param {
    lr_mult: 1
  }
  param {
    lr_mult: 2
  }
  convolution_param {
    num_output: 32
    kernel_size: 3
    pad: 1
    stride: 1
    engine: CAFFE
    weight_filler {
      type: "xavier"
      #std: 0.01
    }
    bias_filler {
      type: "constant"
      value: 0
    }
  }
}
layer {
  name: "relu3a"
  type: "ReLU"
  bottom: "conv3a"
  top: "conv3a"
}
layer {
  name: "pool3"
  type: "Pooling"
  bottom: "conv3a"
  top: "pool3"
  pooling_param {
    pool: AVE
    kernel_size: 3
    stride: 2
    engine: CUDNN
  }
}
#------------layer group 4-------------
layer {
  name: "ip4"
  type: "InnerProduct"
  bottom: "pool3"
  top: "ip4"
  inner_product_param {
    num_output: 2048
    weight_filler {
      type: "xavier"
    }
    bias_filler {
      type: "constant"
    }
  }
}
layer {
  name: "relu4"
  type: "ReLU"
  bottom: "ip4"
  top: "ip4"
}
#------------layer group 5-------------
layer {
  name: "ip5"
  type: "InnerProduct"
  bottom: "ip4"
  top: "ip5"
  inner_product_param {
    num_output: 512
    weight_filler {
      type: "xavier"
    }
    bias_filler {
      type: "constant"
    }
  }
}
layer {
  name: "relu5"
  type: "ReLU"
  bottom: "ip5"
  top: "ip5"
}
#------------layer group 6-------------
layer {
  name: "ip6"
  type: "InnerProduct"
  bottom: "ip5"
  top: "ip6"
  inner_product_param {
    num_output: 4
    weight_filler {
      type: "xavier"
    }
    bias_filler {
      type: "constant"
    }
  }
}
layer {
  name: "loss"
  type: "SoftmaxWithLoss"
  bottom: "ip6"
  bottom: "dataSeg"
  top: "loss"
#  loss_param {
#    ignore_label: -1
#  }
#  softmax_param {
#    axis: 1
#  }
  include: { phase: TRAIN }
}
layer {
  name: "loss"
  type: "SoftmaxWithLoss"
  bottom: "ip6"
  bottom: "dataSeg"
  top: "loss"
#  loss_param {
#    ignore_label: -1
#  }
#  softmax_param {
#    axis: 1
#  }
  include: { phase: TEST }
}

#layer {
#  name: "frscore"
#  type: "Crop"
#  bottom: "upscore"
#  bottom: "data"
#  top: "score"
#  crop_param {
#    axis: 2
#    offset: 19
#  }
#}


